Week 1/SnakeRL/model/model.pth (torch, 147700 bytes, 6 tensors)

layers.0.weight f4 [256, 11]
00000000: 599b aa3d 63ce 803d 5a0e 99be 6888 fbbd
00000010: fd5b 443e 6cb8 47be 02ee be3e 1514 8dbe
00000020: 463b 6f3e 1bdc 8f3e 44f5 2ebe 2b01 b3bd
00000030: 0b43 c33d 324d d3bd 4d2c 38be bce2 b7bd
00000040: e412 3dbe 33bc df3c 5813 603e 1bdb f63d
00000050: 4db1 9e3e 661c cd3d f272 55be 6019 0bbe
00000060: d15e 28be 0dd0 3ebe b4fa 23be 002d be3e
00000070: 08bf c53e f2b8 6cbe c6ca ccbe b5cc 4f3e
00000080: d617 923e c966 fd3d d2c3 f93d fd8b 93be
00000090: 6f4e ff3d bf86 133e e6d7 0a3e 8b21 893e
000000a0: a3c6 c43e 5e8a 75bd 7524 3b3e 305b eb3d
000000b0: 220b f53d 4f5a 843e 365b 0d3e b189 25be
000000c0: fc96 b43e ab5c d8ba 6196 92be 2410 ffbd
000000d0: d635 c7be 0dc6 b2bd 43bf a4bd 9db5 aebe
000000e0: c7d8 73ba 6c2e dc3d dd68 663d 2347 1bbe
000000f0: 928e f1bd 0b9c 2e3d cc58 b33d c7e5 0f3e
00000100: e65b 203e 062e c4be e615 a4bd 2626 9b3d
00000110: 3446 8d3d eced 57bd 0deb 27be 83b4 683e
00000120: 5f06 47be c092 eebe 9ec9 20be 7fd4 a8bb
00000130: e0eb 0bbe 709f 58be 4bd3 84be af34 56bd
00000140: 922c 4b3e d667 41be e216 f1bd 9969 b33e
00000150: cd7e c5bd 5821 803e 77f8 8a3e ad2e 99be
00000160: c72e ff3c d046 143e 9d98 e0bd 4bde 793e
00000170: 7a4d 37be ac19 82be a761 863e 44d2 70be
00000180: 496c 433e a942 bc3e 51ec 713e c638 b3bd
00000190: a3ff 68be 4b06 9c3e 67e6 3f3e 2b8e 723d
000001a0: 7199 8abd fccc 13be eeab 033e 2c2d 053e
000001b0: 0450 3b3e 716e 1f3e d7e1 613d 6bdc aa3d
000001c0: f4ed 1e3e c281 0f3e 2004 bcbe 390b 5e3e
000001d0: a0c6 4bbe d8df d63c 3d91 bfbe efe2 f1bd
000001e0: 9e24 fcbe 7bf7 dcbc 1069 053e 1741 093e
000001f0: 2b29 9ebd fbb3 033e f942 5e3e 45ce 8c3d
00000200: bffc d23e 75a7 863e 1814 373e 2d1b 813e
00000210: e259 513e 8a73 113d d3e5 acbe ac83 0dbe
00000220: dee7 3e3e 32aa b83d 5a06 5ebe 8f94 85bd
00000230: 9183 26be d43f 6ebe 89cc 4b3e 73ca d6be
00000240: b59a 243c 8ce3 20be 86b2 523e a210 7dbe
00000250: 33fd 81bd abd6 28be 8973 a33c 8004 803e
00000260: 766f 4f3d 2ff1 cebe a6fb 0b3e 4c22 1dbe
00000270: 427f b5bd 7740 2ebe e562 8bbe ab73 d5bd
00000280: 578d 723e b872 033e 9e9b 813e eaed d73c
00000290: e565 8fbe d742 cebd 415e 20be f120 97bd
000002a0: dc93 59be a7eb ccbd d9e7 393e 1810 fe3d
000002b0: d636 c53e 5e12 373e 5204 973e aab0 a6bc
000002c0: 47aa b5be e097 55be 5636 8dbe 796e 413e
000002d0: 59b8 7bbd 95e3 c43d 2571 343e aec1 a6bc
000002e0: 4b4f 1abe 3b1c 803e e377 d33d 2e73 b43d
000002f0: 55ea 96bb c2da 27be eec4 e4bd a2c3 8dbe
00000300: 61bc 663d 601f 1b3e c46d 40be 4e8e 05be
00000310: ddd1 633e cd27 933e fee1 3c3e ac5c a43c
00000320: c2c4 453d 65af 273d 57d1 5e3d 3d47 babe
00000330: 7825 8abe 2cc3 01be db01 04be 8c09 843e
00000340: 0d32 0a3e 1fc1 e4bd 1878 0c3e 79af 94be
00000350: e4c9 44be 6e86 83be ec25 8e3e 8441 a8be
00000360: db1e 86be 6793 7f3e 2ec4 b8bd 4f0a 4b3e
00000370: afcd a2bc a99b 713c bdf1 883c 15ae 683e
00000380: 8449 c2be 120c a5bc c6c3 903e 1752 abbe
00000390: 04e4 b63e fec0 2fbe 687e c0be a4ba 8cbe
000003a0: 0b93 8abe 55b5 0d3e 98c5 52bb c0c6 f5bc
000003b0: 16ad 6c3e ee34 873e 9c88 c53e 2ca2 ca3e
000003c0: e3fe 7e3e 8d39 4e3e e7b2 3ebe 0d55 4bbe
000003d0: 04cd 94bc 1581 b8bd 6526 b7bc 8d2f 823c
000003e0: c8b2 bb3e 11ca 24be 4a68 4d3e 6f8c 2a3e
000003f0: 1d18 2cbe 5ea1 76be ea17 883c ca98 a43d
0.083304115 0.06289365 -0.29893762 -0.12281877 0.19175716 -0.19503945 0.3729096 -0.27554384
0.23362455 0.28097615 -0.17085749 -0.08740457 0.09534272 -0.10317458 -0.1798565 -0.08978793
-0.18464237 0.02731142 0.21882379 0.1205351 0.30994645 0.10015182 -0.2084463 -0.13583899
-0.1644242 -0.18634053 -0.16013604 0.37143707 0.38622308 -0.23117426 -0.39998454 0.20292933
0.2853381 0.1237312 0.12195553 -0.2881774 0.12466132 0.1440687 0.13558921 0.26783404
0.38432798 -0.05994641 0.18275626 0.11492002 0.11965014 0.2585015 0.13804325 -0.16165806
0.35271442 -0.0016507109 -0.28630355 -0.124542505 -0.3890826 -0.087291814 -0.08044293 -0.34122935
-0.00093020167 0.10751042 0.05625235 -0.15163855 -0.11794771 0.042629283 0.08757171 0.14052497
0.15660056 -0.38316363 -0.08011989 0.075756356 0.06898156 -0.052717134 -0.16398259 0.2272511
-0.19436024 -0.46596336 -0.15701911 -0.0051522846 -0.13664198 -0.2115457 -0.25942454 -0.052296337
0.19841221 -0.18887267 -0.11771943 0.35041502 -0.09643326 0.2502544 0.2714269 -0.29918423
0.031150235 0.14480138 -0.10966609 0.24401204 -0.17900649 -0.2541021 0.26246378 -0.2351771
0.19084276 0.36769608 0.23625304 -0.08751063 -0.22753768 0.3047355 0.18740235 0.059217613
-0.06767548 -0.14433664 0.12858555 0.13005513 0.18292242 0.15569474 0.05514702 0.08342823
0.1552046 0.14014342 -0.36721897 0.21683969 -0.19899988 0.026229784 -0.37415496 -0.11810862
-0.49246687 -0.026973477 0.1302836 0.13403736 -0.07722696 0.12861626 0.21705236 0.0687528
0.41208455 0.26299635 0.17878759 0.25216046 0.20444444 0.035510577 -0.33769092 -0.1381976
0.18643138 0.09016837 -0.2168211 -0.06522476 -0.16261126 -0.23266536 0.19902243 -0.41951331
0.010046651 -0.15711802 0.20575914 -0.24713376 -0.06347122 -0.1648814 0.019952552 0.25003433
0.050643407 -0.40418383 0.13670215 -0.15345114 -0.08862163 -0.17016779 -0.27223888 -0.104224525
0.2368673 0.1283673 0.2531404 0.026358563 -0.28007427 -0.100713424 -0.15660955 -0.0737933
-0.2124781 -0.100058846 0.18154849 0.124054134 0.385184 0.178781 0.29495484 -0.020347912
-0.35481474 -0.20858717 -0.27580518 0.18889798 -0.061455105 0.0961372 0.17621286 -0.020356026
-0.1506931 0.25021538 0.10325601 0.08811031 -0.0046055713 -0.16392043 -0.11170374 -0.27688318
0.056331996 0.15148687 -0.18791872 -0.13042566 0.22248025 0.28741303 0.18445584 0.02006372
0.048283346 0.040938754 0.05439886 -0.36382475 -0.2698171 -0.12672108 -0.12891333 0.25788534
0.13495655 -0.111696474 0.13717687 -0.29040125 -0.1921764 -0.256885 0.27763307 -0.32862484
-0.26195416 0.24958573 -0.09021793 0.19828151 -0.019873468 0.014746585 0.016716832 0.22722657
-0.37946713 -0.020147357 0.28274363 -0.33461067 0.35720837 -0.17163464 -0.3759644 -0.27486145
-0.2706531 0.13838704 -0.0032161232 -0.030001998 0.23112902 0.2640757 0.38580787 0.39576852
0.24901919 0.20139141 -0.18622933 -0.19856663 -0.018164165 -0.090089954 -0.022357175 0.015891815
0.36659837 -0.16092707 0.20059314 0.16655134 -0.16806073 -0.24084994 0.016612966 0.08036955

layers.0.bias f4 [256]
00000000: 45cd 4bbe a116 50bd cdb8 10be b427 d8bb
00000010: e28d 943c 6fda 1cbd 9de5 133e 907a 27bd
00000020: 28c1 1ebd 45cc 99be 35d2 773e 2088 a5be
00000030: 3467 b9bc 8faa eb3d 34a7 8f3d 969d c1bd
00000040: 4df4 cf3c d35c dabc b43b 993d 2ff5 f03d
00000050: 8b3f 7d3d 0496 38be 0e5f 4abe 836a f3bd
00000060: d1a5 3b3e 0dfd 45be 5f19 a5bb 878e 9fbe
00000070: f447 c13d 0e04 ad3d 19e0 03be 385a 053e
00000080: 8f91 873d 92c6 b83d 2529 033e 6f7e 643d
00000090: 9988 203e f66d 4f3e 302f 12be b536 21be
000000a0: 3b15 173e 96c1 09be ef7f d53d 6eb1 1a3d
000000b0: 1b43 cbbe 42d7 973d e12e 6cbe 0ccc 1ebd
000000c0: 132f 44be af9b 17be d463 5f3e 79e6 55be
000000d0: 82c9 833e 1932 983d c7c6 9f3d 5376 d1bd
000000e0: 5944 f1bd 0d70 8cbd 7567 6bbe 3215 0ebe
000000f0: a248 953e 7189 bfbd 27af 37be 8595 0a3e
00000100: fbcf bfbd dafd d13d 5415 63be cfe0 57be
00000110: 3cc1 69bd f38d a73d c021 d63c d6e5 53be
00000120: 03a9 443e a9b2 2dbd b987 b23d 68db 7cbe
00000130: 8b0f 22be 94ac 8ebe 5f7f 843d 6ab1 3a3e
00000140: abed f4bd 8199 493d f341 9e3d c0ad 58be
00000150: 9b93 803a c2cd 15be 614d 543e 8b60 d83d
00000160: bbbb 07be 8d5d b23d 869d 53bc 7e3a e2bd
00000170: b374 b53c c210 2bbe d31d 273d 67fa 763e
00000180: abb9 b23c a8bf 35be 6404 98be 4e16 9fbd
00000190: 5544 4c3e ee06 6cbe b5d8 02be c500 b2bd
000001a0: d454 333e 281f f4bd 8033 683e e6f1 8c3e
000001b0: 6c05 81be ceca 0abc 5567 b0bd 7af3 aebd
000001c0: 02fe 5abe dafe 94bd b434 e13d 4e51 68bd
000001d0: a7b7 18be efb5 7fbe 36ce 9b3d f86c 9f3e
000001e0: 64dc dfbc 3125 2fbd e104 22be 67e7 033e
000001f0: 1d4b 4abe 3bf9 5abe 4a7c 93bd eb3c 073d
00000200: 831c 2b3e 0ce3 773e dadb 8bbd 0332 f7bd
00000210: 8d70 39be 3ce6 a53e 9bc0 073e a955 9e3e
00000220: 2f21 37be 80b0 5bbe 6cb2 d1bd 8cb2 5dbe
00000230: 4279 c8bd 8eb8 a23e 36f9 9fbd 6ab3 1bbe
00000240: 583f 06be 1023 7e3b 1b4a b53d c97b 40be
00000250: 9d4c ba3d 0e07 58be 7018 533d 14d6 17be
00000260: 87b6 1a3e 8d2d a8bd 58d8 11bd cff8 47be
00000270: 0c0f 8abe a2e8 cabb 79e7 5ebe 4446 353e
00000280: 6ec0 4e3e 7082 9c3e 002e a53d 2a32 00be
00000290: 8979 24bc 4d9a 15be 5c97 10be 597f 80be
000002a0: 20af 383e b4fd 68be c6c9 ca3d dea9 3c3e
000002b0: cf47 95be 51e9 943b 724a b73d 14ba 173e
000002c0: 60f3 93bd eb79 4d3e 12ba 2b3e e491 0d3e
000002d0: fe08 913e 37a4 543e 65fa 603e 699c 5f3e
000002e0: 9a3c 63be 4795 493e 1fa8 2bbe 0da6 82bd
000002f0: 7127 bebd 6b43 9fbe 8696 dfbd b1bc 5e3e
00000300: 629d 3ebe ca10 25be 3e45 bc3e 3697 983d
00000310: 732d 9dbd 0d8d 943e 1c7c 17be b2f6 59bd
00000320: cf6b 0d3e 3f07 18be 573d f9bd db8d fb3c
00000330: 299a 233e dcf6 bf3b 26a3 31be b622 423d
00000340: 3be2 9fbd 643f 8fbc a66f 1abd 167f 32be
00000350: a6e1 bbbd 5231 57be 228e 863e 02b4 10bd
00000360: c016 1cbe b857 72be 3b1d babd 74ec 6cbe
00000370: 5f83 0dbe a632 23be 84c6 c0bd ae77 30bd
00000380: 5212 8abe cce8 6bbe 758d ab3d 4d25 093d
00000390: a9a3 98bd 2e55 b73b f50b 1cbe b10a 743d
000003a0: 7b12 2ebe f33f b53e cffa 233c 245c 89be
000003b0: 7ec2 a5bd 61e8 0dbc 9d2c 17be b112 91bd
000003c0: 473f 5d3e 5c63 c1bb fa96 aabd 088c 003e
000003d0: af95 ac3d 8fd4 18be fb02 47be ac1e 11bd
000003e0: 76fc 5cbe 1d4e 213e 6e45 fd3d 502e df3d
000003f0: 5812 dd39 55d7 00bd f251 1e3b e6cd 9ebd
-0.19902523 -0.05080283 -0.14132996 -0.00659653 0.018134061 -0.038294252 0.1444306 -0.04088837
-0.038758427 -0.30038658 0.24201281 -0.32330418 -0.022632219 0.11507141 0.07014313 -0.09453885
0.025385046 -0.02665559 0.074820906 0.11765515 0.061828177 -0.18025976 -0.19762823 -0.1188555
0.18324973 -0.19334812 -0.005038425 -0.31163427 0.09437552 0.08448039 -0.12878455 0.13022697
0.0661956 0.09022249 0.12808664 0.05578464 0.15677108 0.2025679 -0.14275813 -0.15743525
0.14754193 -0.13452753 0.10424792 0.037766866 -0.39699635 0.07414104 -0.23064758 -0.038768813
-0.19158582 -0.14805482 0.21815425 -0.208887 0.25739676 0.0743143 0.07801586 -0.10227647
-0.117806144 -0.068573095 -0.22988684 -0.13875273 0.29156977 -0.09352387 -0.17937909 0.135336
-0.09365841 0.102534965 -0.22176105 -0.21081851 -0.05706905 0.081813715 0.02613914 -0.20693144
0.19205098 -0.04240671 0.08717293 -0.24693072 -0.15826242 -0.27866042 0.064696066 0.1823174
-0.11959394 0.04921866 0.077274226 -0.2116003 0.0009809615 -0.14629272 0.20732643 0.10565289
-0.13255207 0.0870925 -0.0129159745 -0.11046313 0.022150373 -0.16705611 0.040799927 0.24118958
0.021817049 -0.17748892 -0.2969085 -0.07767926 0.19947942 -0.23049518 -0.1277798 -0.08691553
0.17512828 -0.11920005 0.22675896 0.27528304 -0.2519945 -0.008471204 -0.08613459 -0.08542533
-0.21385959 -0.072751716 0.109963804 -0.056718163 -0.14913808 -0.24971746 0.07607691 0.31137824
-0.02732677 -0.042760078 -0.15822174 0.12881242 -0.19755216 -0.21384136 -0.07201441 0.03301708
0.16710095 0.24207705 -0.06829043 -0.12070086 -0.18109341 0.32402217 0.13257067 0.3092473
-0.17883752 -0.21454048 -0.102391094 -0.21650141 -0.09788753 0.3178143 -0.07811205 -0.1520516
-0.13110101 0.0038778223 0.08852025 -0.1879722 0.09096644 -0.21096441 0.051536977 -0.14827758
0.15108691 -0.08211813 -0.035606712 -0.19528507 -0.26964605 -0.006192283 -0.21767987 0.17702585
0.20190594 0.30568266 0.080654144 -0.12519136 -0.010038742 -0.14609642 -0.14120239 -0.2509716
0.18035555 -0.2275303 0.099017665 0.18424174 -0.29156348 0.004544415 0.08949746 0.14817077
-0.072241545 0.2006604 0.16770199 0.13825184 0.28327173 0.20765768 0.21970518 0.2183701
-0.22191086 0.19685851 -0.16763352 -0.06379328 -0.092848666 -0.31106123 -0.10917382 0.21751668
-0.18614724 -0.16119686 0.36771578 0.07450716 -0.076746844 0.29013863 -0.14793438 -0.053213783
0.13810657 -0.14846514 -0.12169903 0.03070729 0.15976776 0.0058582854 -0.17347392 0.047396384
-0.07806822 -0.017486282 -0.037704132 -0.17431292 -0.091738984 -0.21014908 0.26280314 -0.03532792
-0.15243053 -0.23666275 -0.090876065 -0.23137075 -0.13819645 -0.1593729 -0.09412864 -0.043082885
-0.26967102 -0.23038024 0.0837659 0.03348284 -0.07453091 0.005594871 -0.15238936 0.05958051
-0.16999237 0.35400352 0.010008528 -0.2682811 -0.08093737 -0.0086613605 -0.14763112 -0.07083643
0.2160617 -0.005901737 -0.08329578 0.12553418 0.084269874 -0.14924835 -0.1943473 -0.03542964
-0.21580681 0.15752454 0.12366758 0.10897505 0.00042166072 -0.031455357 0.002415773 -0.07754116

layers.1.weight f4 [128, 256]
00000000: 3251 46bd ced7 7f3d 7861 10bd eec3 16bd
00000010: 607f 203d e264 233d 5c32 0cbc 88b3 c63c
00000020: e113 31bd 8f1d b53b 73b2 3d3b cf6e 063d
00000030: 649c 56bd 1ef0 3f3c 7132 18bd 3265 403d
00000040: 708b 433d e97b 913c 8e25 2ebc 2721 74bd
00000050: 4346 f03c 1d5d b0bc 80da 34bc d7a3 233d
00000060: cbd3 b7bc 88b2 013c 6552 52bc 98e0 04bc
00000070: 7927 893a 0acb 20bd 84d4 d23c c025 cb3a
00000080: e14e 323d 2396 403d 11ad 01bd 200c 25bd
00000090: 8146 343d ea56 7ebd acae 5bbd fa18 1fbd
000000a0: 42ce 463d 7915 513d 34e0 8b3c f4a7 22bd
000000b0: b78e 3e3c 1053 d13b 4157 4c3d 7a5b 603c
000000c0: e4cc a9bc ebe3 343d 4987 41bc c653 2bbd
000000d0: 894e a6bb 2433 edbc 02c0 ddbc 41c9 19bd
000000e0: 88e0 543d f0d8 77bd c7ce 573d 75ff 503d
000000f0: 79d3 293c 9cb3 1abd e4a0 81bc 4a8c 303d
00000100: 0c97 06bd 96fc abba da8c 1b3d 4ebc 77bd
00000110: 05bf 323d 6f66 3ebd a9cb ce3c ac11 023d
00000120: 699a 1b3d d667 e13c 7820 17bd c814 b6bc
00000130: 60e8 683b 9497 793d bb5c 3c3d ea9a 29bd
00000140: b8ae 753c 30b7 283c df0c 723a 10c7 c939
00000150: 224b 7e3c 74ce 26bd a1dc 49bd 29b0 7e3a
00000160: 603e d7bc b1b0 863a 1ebb 25bd bc9a 67bd
00000170: b543 2bbd f2ba 7dbd 5e78 05bc a456 db3c
00000180: 3099 e53b 9a1a d3bc 58e8 68bc eef6 2a3d
00000190: ed6c 133d 905b 22bc e915 6fbd 05f4 6cbd
000001a0: a015 e6bc ce82 0d3c 8947 3bbc bda0 66bd
000001b0: 30ed 353c 1d9b 1cbd 2ccf 9e3c 4a9e 49bd
000001c0: 24e8 7ebd 2015 ef3c c018 ed3b d804 59bd
000001d0: cafe 67bc cd08 563d ea50 d23c 8a40 5dba
000001e0: 385b 4e3d aa94 b3bc c799 953c 4433 d7bc
000001f0: b61a 4a3d 38e0 293d a334 93bc 80c1 973c
00000200: b278 0dbd 43f7 a53c 34de 75bd 5cf6 80bc
00000210: 0e22 493d 1ff2 af3c 28a0 7ebb 7446 0abc
00000220: f8a3 a53c 607b 70bd df5a 643d 2472 bb3c
00000230: cff1 42bd 4813 033d bef5 143d fe93 753d
00000240: a13d d7bb 3eff 82bd 73a9 6fbc c613 8b3c
00000250: f4c0 12bd 5886 5ebb 06c2 5b3d ab35 a0bb
00000260: f58f d5bc 9084 83bd a015 eabc 28c9 61bc
00000270: 1a9a ae3c cdc7 6bbd 4c9d 69bd 883c 72bc
00000280: 74e7 003d 6b7c 833c 9214 7a3c e918 0fbd
00000290: 584a 3dbd f138 3dbd 8406 e6bc 0f72 dbbc
000002a0: 3857 c4bc f0ad 583c 1f9c 39bd 6001 55bc
000002b0: 346d e5bc 16d4 dd3c 50f3 dcbc 3378 88bd
000002c0: 0984 83bc f61b 28bd 3897 a83c 7c36 f3bc
000002d0: fc3e 143d a202 463d 2c64 2d3c 605c 10bd
000002e0: 0498 a2bc a416 ba3c ccdb 12bd 16e1 97bb
000002f0: bcc1 1b3d e862 1bbc e9a7 ae3c dfc2 9dbb
00000300: beb6 33bc 9317 f4bc 7946 933c 278d 1c3d
00000310: def2 323d 3a8c 12bd ee9f 70bd be04 9bbc
00000320: 7893 813c 086b 273d d449 783c 7ed8 1dbd
00000330: 3fa5 d53c 61c8 f93c e426 753d d240 82bd
00000340: 7ed6 2c3d 77aa ffbc 7f27 203d e064 ca3c
00000350: a9e7 b7bc 666f 333d 3bab 0dbd add7 69bc
00000360: e360 1e3d 73d5 4dbc 0017 27bc f378 4bbd
00000370: a707 c8bc 3c3b 483c e40c 1a3c 50e5 843c
00000380: bea8 723d 83c9 3fbc 730a 363d f1b3 3ebd
00000390: 5c54 12bd 5b6e 7dbd d44d 643d 4395 673d
000003a0: bc58 223d 2aa5 33bd da22 53ba e076 123b
000003b0: c71d 32bd 9c72 e3bc 602c 293d 41bf e7bc
000003c0: 8e20 813c 223a d6bb f64b 44bc 9dfd 14bb
000003d0: ef81 163d 602b 4d3d a4c7 82bc 6039 b13b
000003e0: 0def 483c d436 f7bc 6abe 84bc 2d8c ff3b
000003f0: 0694 80bd 3819 84bc a79f d53c 7e9e eabc
-0.048417278 0.062461667 -0.035249203 -0.036807947 0.039183974 0.03989113 -0.0085569285 0.024255529
-0.04323185 0.0055272053 0.0028945475 0.03282052 -0.05239524 0.011714963 -0.03715748 0.046971507
0.0477404 0.01775928 -0.010629071 -0.05960193 0.029330378 -0.021528775 -0.011038423 0.03995117
-0.022439858 0.0079161 -0.012837027 -0.008110188 0.0010464034 -0.039256133 0.025736101 0.0015498921
0.043532256 0.04701818 -0.03165919 -0.040294766 0.04401255 -0.062094606 -0.053633377 -0.03884218
0.048536547 0.05104587 0.017074682 -0.039710954 0.011630706 0.0063880756 0.0498879 0.013693685
-0.020727582 0.044162672 -0.01181204 -0.04182794 -0.00507528 -0.02895505 -0.027069096 -0.037545446
0.051971942 -0.060509622 0.052687433 0.051024873 0.01036536 -0.037768945 -0.015823789 0.04310254
-0.032858893 -0.0013121541 0.037976123 -0.060482316 0.0436392 -0.046484407 0.025243597 0.031755134
0.037989054 0.027515333 -0.0368962 -0.022226706 0.0035538897 0.06093557 0.045986872 -0.041407503
0.0149952695 0.010297582 0.00092334853 0.0003848602 0.015520843 -0.040724233 -0.049282674 0.0009715581
-0.02627486 0.0010276047 -0.040461652 -0.05654405 -0.041812617 -0.061945863 -0.008146374 0.026774712
0.0070067868 -0.02576952 -0.014215551 0.041739397 0.03599255 -0.0099095255 -0.058370505 -0.057849903
-0.028086483 0.008637143 -0.0114306295 -0.056305636 0.011103913 -0.038233865 0.019385897 -0.04922322
-0.062233105 0.029184878 0.0072356164 -0.052983135 -0.014159868 0.052254487 0.025673348 -0.0008440098
0.05037996 -0.021921474 0.018261803 -0.026269563 0.04934188 0.041473597 -0.017969435 0.018524885
-0.034538932 0.020259505 -0.060026363 -0.015742473 0.049104743 0.021477757 -0.0038852785 -0.008439649
0.020219788 -0.05871141 0.055750724 0.022881575 -0.047593888 0.03200081 0.03636717 0.05995559
-0.006568626 -0.0639634 -0.014627802 0.016977202 -0.035828546 -0.0033954587 0.053651832 -0.00488921
-0.02606962 -0.06421769 -0.028574765 -0.01378087 0.021313716 -0.05756359 -0.057034776 -0.01478494
0.03147073 0.016050538 0.015263693 -0.034935866 -0.046213478 -0.04619688 -0.028079279 -0.026787786
-0.02396737 0.013225064 -0.045314904 -0.013000816 -0.028006174 0.02707867 -0.02697149 -0.06663551
-0.01605417 -0.04104229 0.02057992 -0.029689066 0.03619288 0.048342355 0.010582965 -0.035244346
-0.019847877 0.022715874 -0.035854146 -0.0046349866 0.038026556 -0.00948403 0.0213203 -0.00481449
-0.010968862 -0.029796397 0.01797794 0.03822055 0.043688647 -0.03577826 -0.05874627 -0.01892316
0.015817389 0.040873557 0.015154321 -0.03853654 0.026079772 0.030491056 0.059851542 -0.0636002
0.042196743 -0.031209214 0.039100166 0.024706304 -0.022449331 0.04380741 -0.034587126 -0.0142726125
0.038666617 -0.012563097 -0.010198355 -0.049675893 -0.024417711 0.012221154 0.009402487 0.016222626
0.059242956 -0.011705759 0.04444356 -0.046558324 -0.035724983 -0.06187282 0.055738285 0.05653883
0.039635405 -0.043858685 -0.00080542045 0.0022348687 -0.04348543 -0.027764611 0.041302085 -0.02828944
0.015762594 -0.0065376917 -0.011981001 -0.0022734173 0.036745008 0.050090194 -0.015964337 0.005408451
0.012264025 -0.030177511 -0.016204078 0.0077986927 -0.06278233 -0.016125306 0.026077105 -0.028640028

layers.1.bias f4 [128]
00000000: 4a48 2cbc b7a5 fdba f3fe 363d 084b 80bd
00000010: 2cec d6bc f4ac 373d 204a 66bb b3c9 1c3e
00000020: e109 0f3e da80 a2bc 0b98 163c d21f 773d
00000030: 7ae0 f33c 3fec 5a3c b9b2 833a b9b6 b2bd
00000040: 6245 72bd 8d9e a03c 1045 7fbd 50b4 74bd
00000050: 903e b13b 2ef1 4dbd 601f 94bd f125 d9bc
00000060: 4266 253d 614c c5bc 48e4 bdbc 993f c2bc
00000070: 14bb 97bd b72e 843c d8f5 e4bb 9eda 96bd
00000080: 5b67 783d 9213 5d3c e25f 29bd 1a7c 0a3d
00000090: 62db 27bb 23d1 f7bc c47c 7abd 0cda 5cbc
000000a0: 7586 27bd 7c6c 5cbd fcb4 ba3c 6866 d43c
000000b0: 2534 8cbd 5b5f da3b 8355 3bbd 4993 e63c
000000c0: 973e 863c 7127 95bd dcc8 e43c 9df8 693d
000000d0: 0ef7 223c 4501 1ebd e5ad c03d b6ca 92bd
000000e0: 232f 8d3c 5ad9 39bd f5ce 453d fd7d c1bc
000000f0: 2952 89bd b074 1dbd b65e 443d b56a 4dbb
00000100: a5d9 99bc b35f 3cbd 5a2b 363d 38b5 6f3d
00000110: 168e 8ebd cfab 67bd 7172 ae3c 47be 0cbd
00000120: 0f6e a83c 32e7 9e3c 28c5 4a3c 84b4 753d
00000130: a14c 133e a2e4 2d3c 97dd edbc ded4 893d
00000140: 743e 38bd bf17 d5b8 068c 973d 0b4e c03d
00000150: 4c88 6fbd ccae 85bc ccef 52bd be69 073e
00000160: 0090 cd3d a6e3 47bd b2f6 f0ba 54d1 c9bb
00000170: 2c2f 53bd 2241 0fbd 352c 91bd 037c 36bb
00000180: b6cc 07bd b3e5 e4bc 0688 b4bc aa5c a7bd
00000190: 4945 2f3e 6823 9ebc 76d6 f7bc a062 89bd
000001a0: 0a7e e5bc 4ccb a33c 8050 21be 7bd7 e0bc
000001b0: b28e 2ebd 7563 153d 5aeb 5cbd e0a5 cbbc
000001c0: cb58 30bd 147e 28bd 00b8 f2bc b913 22bd
000001d0: 47fa 83bc 97f9 20bd 74a1 dcbc 5ebc 9c3d
000001e0: f96e 493d a8be 023d 909d 0a3c abdc 0f3d
000001f0: 629a 743d 8489 88bd 0a05 4b3d 4d5a 38bd
-0.010515282 -0.0019351755 0.044676732 -0.06264311 -0.026235662 0.044842675 -0.0035139397 0.15311317
0.13968612 -0.019836832 0.009191523 0.06033308 0.029770125 0.0133619895 0.001004777 -0.08726258
-0.0591482 0.019606853 -0.062321723 -0.059742272 0.0054090694 -0.050278835 -0.07232547 -0.02650735
0.040380724 -0.024084272 -0.023180142 -0.023711966 -0.07408729 0.016135557 -0.0069873147 -0.07365917
0.060645442 0.013493435 -0.041351207 0.03380976 -0.002561294 -0.030251091 -0.061154142 -0.013479721
-0.040899713 -0.053814396 0.022791378 0.025927737 -0.06845883 0.0066641993 -0.045735847 0.028146403
0.016387267 -0.072829135 0.027927808 0.05712186 0.009946598 -0.03857543 0.09408168 -0.0716757
0.01723439 -0.0453733 0.048293073 -0.023619646 -0.06705124 -0.03844136 0.047941886 -0.003134412
-0.018780539 -0.045989703 0.044474937 0.058522433 -0.069606945 -0.056560334 0.021294804 -0.03436115
0.020560293 0.019397352 0.012376107 0.059986606 0.143847 0.010613592 -0.029036326 0.06730054
-0.044981435 -0.000101610545 0.07399754 0.093898855 -0.058479592 -0.016318701 -0.05149822 0.13223931
0.100372314 -0.048801087 -0.0018384068 -0.006158987 -0.05155866 -0.034974225 -0.0708851 -0.0027844913
-0.033154212 -0.02794156 -0.022037517 -0.08171971 0.17116274 -0.019303992 -0.03025363 -0.06708264
-0.028014202 0.0199944 -0.15753365 -0.0274465 -0.042616554 0.036471803 -0.053935386 -0.024859369
-0.04305343 -0.041135862 -0.029628754 -0.03956959 -0.016110552 -0.039300527 -0.026932456 0.07653116
0.049178097 0.031920105 0.008460417 0.035122555 0.059717543 -0.06666854 0.049565352 -0.045007993

layers.2.weight f4 [3, 128]
00000000: 381a 813d dde6 4dbe b410 693d d7d8 1b3d
00000010: 99df 5ebc 6d49 023c 9514 cfbd 0a4c 98bd
00000020: cf04 9b3d 82dd 09bd fece 09be 7fda 143e
00000030: 6b99 3abb f04d 5f3d 1232 db3c 1c8b e9bd
00000040: e2e4 a4bc ba0a 17be 1e13 92bd 5167 603b
00000050: 16a6 553d 5121 313c 8cfd 44be caa8 8abd
00000060: 53fa cb3d 25ae ad3d c9e9 e9bd 40c6 f53c
00000070: 5921 c33c 96ec 3f3d 7102 07be 97c0 853d
00000080: 58ad cabd 74fc bc3d f1a2 17bd cbfa 94bd
00000090: e2be 103d 4924 84bc 7cb4 23be b95d 333d
000000a0: cf38 533c 95d0 d4bd f101 ac3b adc5 39bd
000000b0: 448b 1bbe dfa9 4e3d 0a05 793d 45f4 80be
000000c0: b6f6 bf3c 4a4b 4cbd c51e a63b 1010 063e
000000d0: d171 3ebe 82d7 acbd 64b3 523d 65d6 7bbd
000000e0: 4076 593c b618 28be c8c6 9e3d 3743 9fbd
000000f0: 1890 6a3d 0aa6 823d ddec 6a3c 5c57 08bc
00000100: 8600 2a3d 982e 19be caae 003d d3a4 d53d
00000110: accd a03d 6f3c c0bd 9f1b 983d 0106 e93c
00000120: 7aa4 a9bd cb92 7b3d 78c5 9e3c 5b81 9fbd
00000130: d988 46bd 5418 493d bb4c 5b3d 83fe 07bd
00000140: 984b 6abb 1d0d c4bb 67bd 91bc 44d9 533d
00000150: 3c14 90bd bc1d 11be 1924 3cbe c5ed a73d
00000160: eb62 933d fbe5 76bd c1b2 083d 2945 953c
00000170: 4cfc 2a3d 0aaf af3d a447 74bb 4970 88bd
00000180: 2006 95bd 3313 89bd 60e8 90bd 18a3 40be
00000190: 3f7e a5bd 1527 5a3d ef4e bfbd 8c21 23be
000001a0: 358d 883d 9f3d e5bd f14e dabd c52a 113d
000001b0: 29fa 423d 3193 5ebb 2f73 5a3c c36a 8a3d
000001c0: 7f6a a73d c0ee b0ba 9cdb 96bd 5ac2 8a3d
000001d0: 7e4b be3c 7eea 403d 72da 5abd 87d9 c7bd
000001e0: eb82 713d 06b1 9b3c ecb6 3d3b 4b0b 2abe
000001f0: 1190 f1bc cd5e 62be b2d8 a33d 7833 f6bd
00000200: 9418 67bd d785 8bbd 998b 063c 7d9e 573d
00000210: 83db 393c a2d0 6a3d e376 13be ce6a d4bd
00000220: cb92 0cbe fc5b 8e3d 18d1 18be a361 1239
00000230: c395 9c3d 25ee 6c3c 685c 523d 0e13 143d
00000240: d0a6 d23c e811 b4bd 8871 183d bc34 1b3c
00000250: d8c9 b8bc dc41 bc3c 83a0 dcbd f517 17be
00000260: ea60 67be d74a 86bc d761 43ba b7aa 123d
00000270: 53f8 ce3c a684 893d 1546 07be 83b8 63bd
00000280: 090a 29bd 12aa 50be 4848 a73d 4588 6cbd
00000290: 117e 87bd 7e31 8d3c 79cb aabb 06a8 c9ba
000002a0: 01aa a73d c91b 063d a14a 72bc 514b a83b
000002b0: 438a ffbd 1081 0bbc 035b 863d ff57 2dbd
000002c0: af86 6bbd 8a91 2dbc 0ffd 0ebd 3b9d 05be
000002d0: c2eb 273c 0dae ebbd 7841 46be 9483 973d
000002e0: 0cac 233b 641c 3b3d bd8b cbbd 1bc2 6cbc
000002f0: 070f 3fbb dbf7 833d 4a3f 083c 2271 a9bd
00000300: 2cbd 69bd 1758 c2bd bbeb c03d f1b7 98bd
00000310: 77f9 163b 27bb 10be c01b 8b3d bd32 413d
00000320: d861 babd aec5 42bd 13cc adbd a658 29be
00000330: b944 23be 2d6f 38bd 2fa7 f0bc 76e5 b33d
00000340: f1c4 a6bc 5dba 07be e285 febd 9bd8 1bbe
00000350: 7609 b0bc 8631 21bd cc51 a5bd 2150 eabd
00000360: a5e2 51be b601 133d fdb2 913c cd00 913d
00000370: d8a8 853d a0b8 9f3c 528c 1b3c 485b af3d
00000380: 6ff0 e1bc 07d7 39bc 6e25 dfbc 6d10 d63d
00000390: dae3 2cbe 5709 d83c 0f73 cfbd 9df9 00bd
000003a0: 6fac 523d b35c b3bd 208b d1bd a617 6d3d
000003b0: 1828 873d 2d88 32bd 831d 49be 960c 97bd
000003c0: 9aef f6bb f9f1 2bbc b072 b13d 3000 a8bc
000003d0: a69a 00bd 7bbb 69bd 1f55 52bd 21ab 91bd
000003e0: 4714 9e3c 1242 093b bf05 41bd 334d f03c
000003f0: e1d5 65bd 5af4 283d 0a3f a3bd 5810 a6bd
0.06303829 -0.20107599 0.056900695 0.03804859 -0.0136031145 0.007952076 -0.101113476 -0.07436378
0.075692765 -0.033658512 -0.13457868 0.14536475 -0.0028472792 0.054517686 0.026757274 -0.11403486
-0.020128671 -0.14750186 -0.071325526 0.003424127 0.052160345 0.010811166 -0.19237345 -0.06770475
0.09959855 0.08480481 -0.11421544 0.03000176 0.023819612 0.046856485 -0.13184525 0.06530874
-0.09896344 0.09227839 -0.037020627 -0.072743975 0.03533829 -0.016130583 -0.15986818 0.043790553
0.012891962 -0.10391346 0.005249255 -0.045354534 -0.15189844 0.05045497 0.06079582 -0.25186363
0.02343307 -0.04987649 0.005069586 0.13092065 -0.18598105 -0.08439542 0.05144061 -0.06148376
0.013272822 -0.16415676 0.07752758 -0.07776492 0.057266325 0.06379326 0.014338699 -0.008321609
0.041504405 -0.1495918 0.03141669 0.10431828 0.07851729 -0.09386527 0.07427143 0.028445246
-0.082833245 0.06141929 0.01938127 -0.077883445 -0.04847035 0.049095467 0.053539973 -0.033201706
-0.0035750624 -0.0059830085 -0.01779051 0.051720873 -0.070351094 -0.14171499 -0.18373145 0.08199648
0.071966015 -0.06027792 0.033373598 0.018221455 0.041744515 0.08578308 -0.0037274146 -0.06662042
-0.07276559 -0.06693115 -0.07075572 -0.18812215 -0.0808072 0.053259928 -0.09341227 -0.15930766
0.06667558 -0.11193394 -0.10659588 0.03544118 0.047601853 -0.0033962245 0.013333126 0.067586444
0.081746094 -0.0013498887 -0.07366106 0.06775351 0.023229357 0.04709863 -0.053430982 -0.09758287
0.058962744 0.01900531 0.0028948141 -0.1660587 -0.029487642 -0.22106476 0.08000316 -0.12021536
-0.056419924 -0.06812637 0.008211994 0.05264138 0.01134384 0.057327874 -0.1440082 -0.10371934
-0.13727872 0.069511384 -0.14923513 0.00013960018 0.07645752 0.014461075 0.051357657 0.036150984
0.025714308 -0.08792478 0.037217647 0.009473022 -0.022557184 0.022980623 -0.10772803 -0.14755233
-0.22595564 -0.016393108 -0.0007453239 0.035807338 0.025264895 0.06714754 -0.13210328 -0.055595886
-0.041269336 -0.20377377 0.081680834 -0.057747144 -0.06615842 0.017235514 -0.005212244 -0.0015385158
0.081867225 0.03274134 -0.014788301 0.0051359315 -0.12477543 -0.008514658 0.06560328 -0.042320248
-0.05750149 -0.010593781 -0.034909304 -0.1304826 0.01024908 -0.11507807 -0.19360912 0.073981434
0.0024974374 0.045681372 -0.09938762 -0.014450575 -0.0029153244 0.06443759 0.008315871 -0.082735315
-0.057065174 -0.09489458 0.09419962 -0.07456959 0.0023036876 -0.14133893 0.06792402 0.04716753
-0.091006935 -0.047551803 -0.0848619 -0.16537723 -0.15944184 -0.0450279 -0.029376594 0.087840006
-0.02035758 -0.13254686 -0.1242788 -0.15219347 -0.021488886 -0.03935387 -0.08072242 -0.114410646
-0.20496614 0.035890304 0.017785544 0.07080231 0.06526345 0.019497216 0.009493904 0.085623324
-0.027580468 -0.01134277 -0.027239528 0.10452352 -0.16883793 0.026371641 -0.101293676 -0.03148805
0.051433977 -0.08757915 -0.10231614 0.05788388 0.06599444 -0.0435869 -0.19640164 -0.073754475
-0.007535887 -0.0104947025 0.08664453 -0.020507902 -0.031397484 -0.05706356 -0.05135071 -0.071127184
0.019296778 0.0020943922 -0.04712462 0.029333686 -0.056112174 0.041248657 -0.07971008 -0.08108586

layers.2.bias f4 [3]
00000000: 74cf 523d 3c2f 82bc b615 04be
0.051467374 -0.015891664 -0.12898907
